Project_Server/model_weights.pth (torch, 823567 bytes, 9 tensors)

rnn.weight_ih_l0 f4 [256, 28]
00000000: cabc c33c 7e76 f53c 033f b6bc fc71 863d
00000010: 4ac6 8f3d 8b0b 293c 363a 01bd 0b23 41bd
00000020: cd1d 5b3d 940c 0f3d b517 8fbd afe2 733d
00000030: 287a d23c 814c 18bc b848 c73c b6a5 56bd
00000040: 0278 5dbd c589 81bc 412c 52bb 8cfc 3f3d
00000050: e556 603c 0fa1 c2bc 6608 a63b aa28 8f3d
00000060: d05e bbbc 5983 15bc 32f0 19bd c7cd 21bd
00000070: fad2 473c 295c 3b3d e2d4 c2b8 bd44 1dbc
00000080: add7 82bd b28e 82bd c4fa 16bd 919b 22bd
00000090: 99ec 95bc 28fe 153c 3fdd 8b3d a3ed 73bc
000000a0: c6fd 823c cb09 8a3d f0f5 3a3c 8630 873d
000000b0: b7ba 233c 595e 803d 6987 57bc 2e35 803d
000000c0: e94a e33b c994 87bd 3c80 843d 6227 fbbc
000000d0: 553a 5d3d d787 2dbd c443 c2bc 88dd 7ebd
000000e0: 321f 2ebc 9960 573d ac1b e6bc a8f7 82bc
000000f0: e6ed cb3c ce60 1bbc daa9 e63c 69e2 bfbc
00000100: c16e 963b 130a 8fbc a8d5 cbbc f398 85bc
00000110: 0e58 533b a50f 6dbd 2108 af3b 6054 883c
00000120: d1fd 91ba f86d 1e3c fdc7 2f3d c30e 103c
00000130: 62f3 d53c 6e4b f0bc 9543 7cbd 3be7 923c
00000140: 8d8a ae3b b766 013b 2d0d 66bd d0f7 4f3d
00000150: 8935 5cbd b0a8 903c 6631 0f3d 09b5 a9bd
00000160: 0ffe 1fbd 2e72 0b3d e82b 85bd 9c42 743c
00000170: 5774 9bbd 75a7 88bd 5945 f63c abac 73bd
00000180: a349 5ebc 0c5a 353d 48d1 753c edc6 eabc
00000190: 8d66 3cbd 0ce9 1e3d 095e 1f3d 190f 5a3d
000001a0: 86ad 3b3d c2d8 043c 9bd2 dfbc 5727 f63c
000001b0: f78d 0dbd 1461 493d 9a43 e33c f987 fbbc
000001c0: 8962 8bbc 70f8 0fbd 1444 98bd 486c b0bc
000001d0: e3a9 363d f0a0 d0bc a73a 4d3c 035a 77bd
000001e0: 101c 65bd caf0 013a bea2 043d 5f71 e83c
000001f0: 7f68 473b 6d6d 5b3d bf05 85bd 96a9 673d
00000200: a8f9 7e3d fda5 783c 93ba 12bd 4c22 40bd
00000210: 89b7 413c 0cad 053c 74ee cc3c efef 763d
00000220: ecd4 8a3d aa29 19bd 9122 11bd 17d6 11bd
00000230: e346 d13c 1f01 043d ed27 923c 251a 153c
00000240: ade0 e6bb 5a3d ecbc 3566 74bc 6bcb 6a3d
00000250: c905 5fbd 436c 1a3d c030 493d a630 63bd
00000260: fce8 803c de4b b73c ce7e 87bd 6471 303d
00000270: 21bb fcbc 806d 23bc 9da7 20bd f747 333d
00000280: 3eae 403d 34b8 3ebd 2ab6 09bd d127 283d
00000290: aa83 80bd 7a09 d9bb a099 513d d5da 323d
000002a0: b79e db3c c090 65bd 375e 81bc 8abd c93b
000002b0: 3a12 9cbc 5e72 353d 54f6 f5bc 2a06 b33c
000002c0: 0687 9d3b 817d 9f3d 9671 913b f8c1 5ebd
000002d0: 12b4 ff3c a475 5a3d 4ad0 89bb 64d5 ecbc
000002e0: a3e8 083d b247 4bbc 794b 3d3c 38ef 1b3d
000002f0: 0e36 053d 5de4 04bc afe4 33bd 8fff 3abd
00000300: 3c05 583c b957 1e3c 5989 443d b4bb 173d
00000310: 8da0 2f3d 7787 1ebc 0b85 d2bc 4225 d9bc
00000320: ddba 29bd 2f03 813d f62c 063d 3b87 783c
00000330: f3a0 263d f6ae f63c 791f 5d3d fedb fb3b
00000340: 8baa 6fbc f17c 10bd c63a 63bd 7be7 38bd
00000350: 656a 14bd efad 6fbd a907 fb3b e554 2fbc
00000360: 5ed0 68bd 7be5 24bd 354f 883d 137e 093c
00000370: 7a23 17bd 5406 46bd 4f78 1e3d 96b0 6bbd
00000380: 0446 0f3d e26d 753d a1aa 1a3d 6b7f 03bd
00000390: 00c3 423d c149 97bd b505 703d c842 293d
000003a0: 1ea4 4ebb 1c2f 71bc 8dd8 703d af26 76bc
000003b0: 201e 92bc 9a52 80bd 9ff9 ee3c 1dde 153c
000003c0: 5bfc c0bc af0b 67bd 70a0 9b3c 9d2f b7bc
000003d0: 5a2a 6f3c 1ef6 39bd ab66 ecbc def7 aabc
000003e0: a5b5 b6bc 3542 bd3c 611a 4e3c 220a 4c3d
000003f0: a8da b63a f586 eabc b47b 14bd 2b58 35bd
0.023893733 0.029963728 -0.022246843 0.065647095 0.070202425 0.010317693 -0.031549655 -0.04715256
0.053495217 0.034924105 -0.06986944 0.059542354 0.025693014 -0.009295584 0.024326667 -0.052404128
-0.054069526 -0.015812764 -0.0032069834 0.046871707 0.013692592 -0.02375844 0.005066919 0.06990178
-0.022872359 -0.009125554 -0.037582584 -0.039502885 0.012196297 0.045742188 -9.2902934e-05 -0.009598908
-0.06388793 -0.06374873 -0.036860242 -0.03969914 -0.018301295 0.009154834 0.06829309 -0.0148882
0.01599015 0.06740149 0.011411175 0.06601052 0.009993247 0.062679954 -0.013154843 0.06260143
0.00693642 -0.066201754 0.06469771 -0.030658428 0.054010708 -0.042365875 -0.023713954 -0.062222987
-0.010627555 0.052582357 -0.028089367 -0.015987232 0.024893712 -0.009483529 0.028157163 -0.02342339
0.0045908396 -0.017460858 -0.024882153 -0.016308283 0.003224853 -0.057876248 0.005341545 0.016641796
-0.0011138265 0.009669773 0.042915333 0.008792582 0.02611703 -0.029332843 -0.06158789 0.017932525
0.005326575 0.001974506 -0.05616491 0.05077344 -0.053761993 0.017658561 0.03495922 -0.08286483
-0.03906065 0.034044437 -0.06502515 0.014908459 -0.075905494 -0.06672565 0.030062364 -0.05949084
-0.013567361 0.04427533 0.01500351 -0.028659308 -0.045996238 0.03879647 0.03890804 0.053237054
0.04581978 0.00810832 -0.027322104 0.030048056 -0.034559216 0.049164847 0.027742196 -0.030704485
-0.017014759 -0.035149038 -0.0743486 -0.021536008 0.04459561 -0.025467366 0.012526191 -0.060388576
-0.055934966 0.000495684 0.032381766 0.028374372 0.0030427275 0.053571153 -0.064952366 0.056558214
0.06224981 0.015176293 -0.035822462 -0.046907708 0.011823543 0.008158933 0.025016047 0.060287412
0.06778893 -0.03739325 -0.035433356 -0.035604563 0.025546497 0.03222763 0.017841304 0.009100472
-0.0070458264 -0.028837848 -0.014916946 0.0573229 -0.054448877 0.037700903 0.049118757 -0.055466317
0.015736096 0.022375043 -0.06615983 0.043076888 -0.030850949 -0.009974837 -0.03922235 0.043769803
0.04704117 -0.04656239 -0.03362099 0.041053597 -0.06275113 -0.006623444 0.0511719 0.043665726
0.02680908 -0.056046247 -0.015791995 0.006156628 -0.01905166 0.044298522 -0.030024685 0.021853525
0.004807356 0.0778761 0.0044385893 -0.0543842 0.031213794 0.053334847 -0.004205738 -0.028910346
0.033424985 -0.01240723 0.011553639 0.038069934 0.032522254 -0.008111087 -0.04391926 -0.045653876
0.013184842 0.009664469 0.047982547 0.037044242 0.042877723 -0.009675852 -0.025698205 -0.026507024
-0.041437972 0.06299435 0.03275772 0.01516896 0.040680837 0.030112725 0.053985093 0.007686137
-0.014628063 -0.035275403 -0.055475973 -0.045142632 -0.03623428 -0.058515485 0.0076608253 -0.010701393
-0.05683934 -0.040257912 0.066557325 0.008391875 -0.036899067 -0.04834588 0.038688954 -0.057541452
0.03497888 0.059919246 0.03776038 -0.032103937 0.047549248 -0.07387114 0.058599193 0.041323453
-0.0031530927 -0.014720704 0.05880027 -0.015023871 -0.01783663 -0.06265755 0.029171763 0.009147194
-0.023557832 -0.056407627 0.018997401 -0.022361571 0.0145975 -0.04540073 -0.02885755 -0.020870145
-0.022303412 0.023102859 0.012579531 0.04981435 0.0013950663 -0.028628806 -0.036250785 -0.044273537

rnn.weight_hh_l0 f4 [256, 256]
00000000: 1b78 d33c 5906 1f3c 8834 65bd 2d47 c5bc
00000010: 5493 c63b 92b6 44bb 112d 6e3c f99c 10bd
00000020: 4dc5 9cbc 4c5c 523b acfd b4bc 5bc9 b7bb
00000030: 39f6 0c3d 28b7 4fbd 2d60 18bc 0bf7 433b
00000040: 1758 1c3d 3b65 adbc 50e6 d43c 6650 61bb
00000050: 3182 01bc e0e6 273d daa2 01bd 6638 82bd
00000060: 4cd7 1f3d 8b9a 34bc d5f7 26bd d894 523d
00000070: ea02 efbc 3595 6dbc 940d 313c 04ef 003d
00000080: 0aba 443d 35bc 51bd 2135 27bc b7ff 92bd
00000090: a678 0a3d cca8 313d 072f 9e3c 942d 493c
000000a0: a1fb 30bd 4414 5f3d 9da5 06bd 2712 98bd
000000b0: 2627 683d 3441 0a3d d980 323d bea1 0dbd
000000c0: 7bfe cc3c 3be3 1d3b 22b6 773d 8aa5 143d
000000d0: 7c9d 54bd db9f 773d 13a4 083d cd14 5ebd
000000e0: 749c 0a3d eb67 28bd 354c 4cbd cdc8 53bd
000000f0: 833b 013d 202c cebc a0d1 02bd d2ee afbc
00000100: c2a6 7c3d 277d 67bd 8350 353d 9f00 053d
00000110: fb7c 043d 1d6e 40bd cd3c d6bb fb83 bb3c
00000120: 4077 303d b8c4 5b3d eaa3 e33c f046 c3ba
00000130: 769c 2c3d afbe 6ebd 8698 3f3d 9be8 533d
00000140: 103f 4ebd cb70 3cbd 72cf 953c 62ff f23c
00000150: 0c32 91bc 213b 67bd 8b0d d1bc ae6b 0dbd
00000160: 16ef e13c f018 303d 2c2d 3539 b70b 583c
00000170: cf7b 8bbd 2aba 35bc 5fbb 9b3c 020b 07bd
00000180: 1e89 473d 80ca 513d 8b58 4a3d b288 e03c
00000190: c455 0ebd 3cab be3c b45c 3f3d cc5b 513d
000001a0: d1d0 18bd bd66 6b3d 2d92 18bd d417 b3bb
000001b0: c686 39bc fcc2 933c 959b 97bd 5170 0a3d
000001c0: d447 a2bc 5bfd 033d 149d 093c 0ece 413d
000001d0: 1974 613d 5e6c a5bc 4cac e83c d81b abbd
000001e0: 1d3f 05bd c875 a1bc 86d6 9738 e182 32bd
000001f0: ee7b c73c c95a 713d 7578 74bc 0fbb 343b
00000200: 5ff2 c2bb 198c a23c 20b7 433c 38e5 853d
00000210: df64 5b3c 2ffa 923d 9ae7 85bb 7ef1 ccbc
00000220: d424 87bc 125a 8ebd 5039 04bc 759f 22bd
00000230: 6d1e 3bbd 7af8 19bd 1f49 fb3c 3d9f 3e3d
00000240: 0ab2 89bc 6d1c 3dbc ff72 29bd a832 e53c
00000250: 6513 433d cfdb 1a3d d9d6 8fbd e3d2 ab3c
00000260: c11a 4a3d 25f9 3ebc 0150 bbba 7df6 1abd
00000270: 8f2a 4c3d 0caf 74bc 8f9f d63c 90d9 f3bb
00000280: 5222 213c 2d84 643d 68fc 273d f9ec c13a
00000290: ea8a 6b3d 979e 183d fc2a 613c a6a0 fe3c
000002a0: 803b 823d 6ab2 94bd fe22 0e3d 4ce5 573d
000002b0: d578 093d 89eb 90bd 439b 22bd d1d7 c93c
000002c0: a0d5 e2bc 55a2 47bc c535 093d b986 3abd
000002d0: c887 503d 82ad 703b 2ed6 8cbc 7c7b 72bd
000002e0: fcf2 1bbc 6c80 2c3d ae18 42bd d7bc 21bd
000002f0: 2ed4 6a3d 3fbc de3b 3c63 29bd 05d2 763d
00000300: 2064 463d 80ab 06bd 88c7 453c ddaf e13c
00000310: a0d6 c53c e266 45bd 4d2b 5a3d bd23 203d
00000320: f30e 573d a857 933d 7645 66bd 83f2 773d
00000330: 5434 533c 4b43 6b3d 9e8f 8c3d 972b 1ebd
00000340: 7f1e 363d f7a0 0a3d 23c7 303d 5fcc 263d
00000350: 249f 743d d645 56bd 4211 81bd 854c 36bd
00000360: c9dd 353d 9e3c 273d 22e5 6abd 5efc 5dbc
00000370: 1b8f 933b f8da 61bd b9d8 5bbc 7d8a b1bc
00000380: c327 363d 3c4a 1c3d e4b6 793d 4f22 283c
00000390: f181 253d c2d0 e93c 27af 36bd de84 d3bc
000003a0: 1836 a43c 76a1 1fbc 92fa 993c 64bb 63bd
000003b0: f043 ecbb b6b6 603d bcfa b8bc 5ed0 d83b
000003c0: 2d98 023d e510 23bd 4c50 0ebc 3b2e 93bc
000003d0: cac5 7dbc da4e 44bd 5194 103d c3f5 87bc
000003e0: ba79 0ebd 1a9e 21bd 4ffa 77bc befb f33c
000003f0: 7782 81bd 8915 abbb 218d 7a3d e04f 4f3d
0.025814107 0.009706103 -0.0559583 -0.02408179 0.0060600433 -0.0030016047 0.014537112 -0.03530595
-0.01913705 0.003209847 -0.022093616 -0.0056087202 0.034414504 -0.05071178 -0.009300274 0.0029901888
0.038169947 -0.021166435 0.025988728 -0.0034380197 -0.007904575 0.040991664 -0.031649448 -0.063584134
0.039023682 -0.011023174 -0.040763695 0.05141148 -0.029176194 -0.014500906 0.01080646 0.031477943
0.048028983 -0.05120488 -0.010205538 -0.0717768 0.033806466 0.043373868 0.019309534 0.012278933
-0.043208722 0.054462686 -0.032872785 -0.07425337 0.05667796 0.03375359 0.04357991 -0.034578077
0.02502369 0.0024091739 0.06047643 0.036290683 -0.051908 0.060455184 0.0333596 -0.054219056
0.03384061 -0.04111473 -0.049877364 -0.05170517 0.031550895 -0.025167525 -0.031938195 -0.021476183
0.06168247 -0.05651584 0.044266235 0.032471295 0.032345753 -0.046980012 -0.0065380097 0.022890082
0.043082476 0.053654402 0.027788121 -0.001489846 0.0421414 -0.05828732 0.046776317 0.0517355
-0.05035311 -0.046006005 0.018287394 0.029662792 -0.01772406 -0.056452874 -0.025519153 -0.03452652
0.027579825 0.042992532 0.00017278333 0.013186387 -0.06810724 -0.011091748 0.019010244 -0.032969482
0.04871475 0.05121851 0.049400847 0.027408931 -0.03474976 0.02327501 0.046719268 0.051112935
-0.037308518 0.057471026 -0.03724878 -0.005465487 -0.011323636 0.018037312 -0.07402722 0.03379852
-0.019809641 0.03222404 0.008399267 0.04731565 0.05504236 -0.020193275 0.02840247 -0.0835492
-0.032530893 -0.019709483 7.240199e-05 -0.043581847 0.024351086 0.05892447 -0.014921297 0.0027577316
-0.005949303 0.019842194 0.011945516 0.06537861 0.013390749 0.07176625 -0.004086447 -0.025017496
-0.016497053 -0.06950773 -0.008070305 -0.03970285 -0.045683313 -0.03759048 0.030674515 0.04653858
-0.016808528 -0.011542422 -0.041369434 0.027978256 0.047625918 0.037807282 -0.07023401 0.020974582
0.04934192 -0.01165608 -0.0014290811 -0.037832726 0.049845275 -0.014934313 0.02619913 -0.007441707
0.009834843 0.055790115 0.041012198 0.0014795355 0.057505526 0.037260618 0.013743158 0.031082463
0.06359005 -0.07260592 0.03470134 0.05270891 0.0335625 -0.07076175 -0.03969885 0.024639042
-0.027689755 -0.012184699 0.033498544 -0.045538638 0.05091074 0.0036724512 -0.017191973 -0.059199795
-0.009518381 0.04211466 -0.047386818 -0.039486732 0.057331257 0.006797343 -0.041354403 0.060258884
0.04843533 -0.0328784 0.012071498 0.027549678 0.024150193 -0.04819382 0.05326395 0.039096583
0.05250449 0.071944535 -0.056218587 0.06053401 0.012890894 0.057437222 0.0686333 -0.03861579
0.044462677 0.033844914 0.04315866 0.040722247 0.05972208 -0.052312694 -0.0630212 -0.04450657
0.044400964 0.040829293 -0.057347424 -0.013548939 0.0045031435 -0.055140465 -0.01341837 -0.021672482
0.044471513 0.038156733 0.060965434 0.010262086 0.040407125 0.028541926 -0.044600632 -0.025820192
0.020045325 -0.009743085 0.018796239 -0.05559863 -0.007210247 0.054861747 -0.022580497 0.006616636
0.031883407 -0.039811034 -0.008686136 -0.01796638 -0.015489051 -0.04792676 0.035297696 -0.01659668
-0.034784056 -0.039457418 -0.015135362 0.029783126 -0.06323712 -0.005221073 0.061169747 0.050613284

rnn.bias_ih_l0 f4 [256]
00000000: fc32 213d 61ab d13c a603 58bd 2969 97bc
00000010: 1598 9cbc e295 66bd ffa7 513d 6407 0ebd
00000020: f11e 49bc 4041 2f3c 6e38 92bd 3f3c 873b
00000030: 5d11 4c3d c067 d63c a233 5f3d c3f2 843b
00000040: c551 943a 344a 193c a64b 94ba 285a 17bd
00000050: 179e 28bd a40d 7f3c 699f 213d 6ea3 63bd
00000060: 026d f43c 1c7b 833c 467e b8bc 6270 b3bc
00000070: eac3 303d bef1 02bd e0a5 3bbd 5b2b fc3c
00000080: e22d 953d 7fec f8bc a6f7 cfbc de59 81bc
00000090: 39ad d4bc d41b 54bd 95b0 ee3c cad5 55bb
000000a0: 7ba2 943c 67fe 15bc 505b 423d 17d2 62bd
000000b0: 3a8e 5ebd 8d5b 38bd f9a3 0b3d 47fa 023d
000000c0: 85cc 8fbd d8eb 8e3d 4e5e 863d c985 003d
000000d0: 2ba0 14bd f048 083d 7455 163d 7566 793d
000000e0: 55c7 29bb 03fc d23b 2ffb 17bd e48a c23d
000000f0: 8595 0cbd a56b 753d a9bb f4bc 9f82 8dbd
00000100: edef 053b 1ca5 aabb 56ed 0e3c bf74 d7bc
00000110: aeca 86bd 1927 6d3d d383 24bc 51ca 6bbc
00000120: 8eae 4dba 9be7 cfbb 005c 2f3d 9c0f a53b
00000130: daa4 b5bc 2a30 45bd 37ea e23c d2cd 52bd
00000140: 9e5a 03bd 3713 b93b df2f 4abd 4eab 853d
00000150: df96 063d 8e46 233d 69f9 7cbc 1388 3c3d
00000160: e307 a53c 6531 933c c213 843c f2dd d33c
00000170: 5790 3dbc e4c9 78bd 1c9d 1d3d 0ec9 2bbd
00000180: f27f 313c 72c8 86bc e756 05bd d314 41bd
00000190: 7079 59bc e074 973c f47e fdbc 7765 ba3c
000001a0: bef1 a43c f931 373d 12b6 febc c42c fcbc
000001b0: 5dd6 463d 95a4 fcbc 5db9 ee39 3fdb 1bbd
000001c0: a87d 71bd f2e0 c8bc e242 64bc edb0 0cbc
000001d0: 3728 35bd 5921 053d 70b2 2fbd b8aa 8d3d
000001e0: f7db 0b3c 1dcc 6d3d 8475 0abd 1fc5 11bb
000001f0: 3f96 01bd 9b87 5f3d 9f45 573d f326 823b
00000200: cca2 bf3c 35c5 ab3d 4252 71bd 6c00 0ebd
00000210: 90e2 25bd 2f42 debc 429b 963b 49f0 3c3d
00000220: f1d4 f93b edb5 2dbc e9fd abbc 8da0 463d
00000230: ea9f 67bd f0da 3f3d 66d6 87bd fe3c aebc
00000240: 68f4 d5bb 7cc3 df3c 036b 403c 94df d93d
00000250: 684f f0bb df89 34bd 369e b6bd 82e1 9f3c
00000260: 8b22 323d 8a5d 7c3d dce4 b1bb d702 7cbd
00000270: d806 363d a7c1 3e3d 0227 98bc c5f7 e83c
00000280: 872c 2dbc 5907 b73d cdd9 36bc 76db 39bd
00000290: 9309 51bd b64a 5ebd b560 0c3d ccb8 633d
000002a0: cf22 953c 5f9a 3b3c 7db0 16b9 8b9a ebbc
000002b0: ddaa 623d 2d6a afbc 290a e7bc b3e6 953c
000002c0: 3ab0 b93c 07ea 89bb b1b2 d9bc b69f 113b
000002d0: 2547 733c 1b6e bc3c 0c07 ec3c 9c57 863c
000002e0: 8493 7cbd bdb3 8ebd ffa3 d73c fec3 b83c
000002f0: 821e 34bd 5418 15bc cd74 83bd a726 6539
00000300: ac62 ff3c fa82 18bd 63d0 553d 1213 66bd
00000310: 2726 9a3d 287b 83bb 69d4 643d 2a6f 303d
00000320: cb7a 6a3d e10e acbc 701d 543c e561 8c3b
00000330: 3132 a33d f566 39bd 87d1 73bd 8587 dd3d
00000340: d752 42ba f48f 6e3c 411f 02bd b8b1 71bd
00000350: 4e00 a9bc 47af 15bd a8ca 7f3d 06b2 1dbc
00000360: a1af aebc 074d 1c3d 705e 613d 2d61 0dbc
00000370: 7180 213d ca01 c43c 89fd 5bbd b206 373d
00000380: 42a4 68bd abcc 283d 297e 65bd 0307 b53d
00000390: 1725 b13c 19b7 49b9 fa70 e73c 09ed 4d3d
000003a0: ef2f 1abd 9755 2f3d 13d3 66bc 384a 8d3d
000003b0: 22af 473c c124 82bd e7f6 6b3d e9de 00ba
000003c0: fcf1 3abd 7b78 86bd 02b4 e13c f529 68bd
000003d0: 7bb9 3b3d 9711 49bb 8ed5 863d cf34 3cbd
000003e0: 966e ad3d 29e3 f23c 59a3 e53c 8ae6 9d3c
000003f0: c199 13bd f829 333d 5d8f 58bd 9a77 1e3c
0.039355263 0.025594415 -0.052737854 -0.018482761 -0.019115487 -0.056295283 0.051185604 -0.034675017
-0.012275443 0.010696709 -0.07139669 0.004127055 0.049821246 0.026172519 0.0544926 0.0040572598
0.0011315873 0.00935607 -0.0011314049 -0.036951214 -0.04116639 0.015567217 0.039458666 -0.05557578
0.029837135 0.016049914 -0.02252115 -0.021904174 0.04315559 -0.031968825 -0.045812488 0.030782392
0.07284142 -0.030386208 -0.025386643 -0.015789922 -0.025961505 -0.05178435 0.029136935 -0.003262865
0.018143883 -0.0091548925 0.047450364 -0.05537614 -0.054334857 -0.045009185 0.034091923 0.031976964
-0.07021431 0.069785774 0.06560956 0.031377587 -0.03628556 0.033272684 0.03670259 0.060888726
-0.0025906165 0.0064387335 -0.03710478 0.094991475 -0.03432228 0.05991711 -0.02987464 -0.069096796
0.0020437196 -0.005207671 0.0087235775 -0.026300786 -0.06581627 0.057898615 -0.010041195 -0.014391498
-0.000784614 -0.006344748 0.042812347 0.005037261 -0.022173334 -0.048141636 0.027699573 -0.051465817
-0.03206884 0.0056480425 -0.04936206 0.065268144 0.032858726 0.039862208 -0.015440323 0.046028208
0.020145362 0.01796789 0.016122703 0.025862668 -0.011570058 -0.060739413 0.03847991 -0.041939788
0.010833727 -0.016453002 -0.03255358 -0.047139 -0.013273582 0.018488348 -0.030944325 0.02275346
0.020134803 0.044725392 -0.031092677 -0.030783065 0.048544277 -0.030840198 0.00045533004 -0.038050886
-0.058957726 -0.024521325 -0.013931962 -0.008587104 -0.044227805 0.032502506 -0.04289478 0.06917328
0.00853633 0.058055986 -0.033803478 -0.0022242737 -0.031637426 0.054572683 0.05255663 0.0039719283
0.023393057 0.08387224 -0.058916338 -0.03466837 -0.04049927 -0.027131168 0.004596145 0.04612759
0.0076242615 -0.0106024565 -0.020995097 0.048492957 -0.05654899 0.046839654 -0.0663269 -0.021269318
-0.0065293796 0.027314894 0.011744264 0.10638347 -0.0073336847 -0.044076797 -0.08916895 0.01951671
0.043489974 0.061612643 -0.0054288935 -0.061526146 0.04444012 0.0465714 -0.018573288 0.028438458
-0.010569698 0.08936948 -0.011160326 -0.04537531 -0.05103452 -0.05427047 0.034271915 0.055596158
0.018205075 0.011450379 -0.00014370862 -0.028760215 0.05533873 -0.021412933 -0.028203087 0.018298483
0.02266704 -0.0042088064 -0.026574465 0.002222044 0.014848505 0.023001721 0.028811954 0.016399197
-0.06166412 -0.06967876 0.026323317 0.022554394 -0.043974407 -0.009100039 -0.06418762 0.00021853541
0.03117498 -0.037234284 0.052200686 -0.05617053 0.07526808 -0.004012484 0.055866633 0.043074764
0.05724601 -0.021003189 0.012946472 0.004284131 0.079685576 -0.045264203 -0.059525993 0.10816864
-0.0007412857 0.014560688 -0.031768087 -0.059007376 -0.020630028 -0.03654411 0.062449127 -0.009624964
-0.02132398 0.038159396 0.055021703 -0.008629126 0.039429132 0.023926634 -0.053708587 0.04468412
-0.056797273 0.04121081 -0.05602852 0.08839228 0.021624131 -0.00019237063 0.028252114 0.050274882
-0.03764337 0.042806234 -0.01408841 0.06898922 0.012187751 -0.063546665 0.05760851 -0.00049160287
-0.04564093 -0.065659486 0.027551655 -0.05668064 0.045831185 -0.003068065 0.06583701 -0.0459488
0.08468358 0.029649334 0.028031992 0.019274969 -0.036035303 0.043741196 -0.052871097 0.00967207

rnn.bias_hh_l0 f4 [256]
00000000: bd55 3d3d 88e7 3cbd f0db 13bc 8c71 09bc
00000010: fe29 dbbc 0e5d 183d b471 923d a36a 963a
00000020: de46 293d 4992 45bd 2fe7 cf3b 7a14 083d
00000030: 9375 163c fb44 8a3b a95a 903c 6502 1e3d
00000040: 59f4 02bc b4e6 633d a7bc a8bc 4687 a4bd
00000050: dbb8 7ebd 7eae 543d f03d fabc ecc8 193d
00000060: 21c2 4b3d 751f 373d bc48 a23b 8a2c 763b
00000070: a3c6 2abd 92e6 663d 4c98 133d 2e4e a8bd
00000080: ac7a 9d3d 6fc8 4c3d eeba 4abc 7448 85bd
00000090: c049 93bc 5cec 923c 2d48 6a3d f28b 5f3d
000000a0: ee75 b73d deae 7b3b c886 9abc 7dbd c63c
000000b0: a6ee c8bd ce74 703d 664f 6d3d a976 953d
000000c0: c7f0 ffbc 3e6e 3e3d 0a63 44bd 5a0c 0d3c
000000d0: 7227 ab3a 5ee8 70bd ee1e 09bd 65dc 8e3d
000000e0: 2c24 b1bc f58e 6a3d ad77 913c 6692 6b3c
000000f0: 59fa 463c 1bdf 143d b190 d5bc 549f 45bd
00000100: 55b2 2fbb a037 c03c c0ae 073c 01b6 f43c
00000110: 8041 0b3d b52d 98bc 08d7 15bd a18e 223d
00000120: e296 b6bc a233 603d 3c9f 673c b849 3fbd
00000130: dcd6 22bc 3d00 e93c d98f cbba ff48 933c
00000140: c095 8d3c 460d a5bc a129 1abd 1c5f 1d3d
00000150: 8023 9c3d 3fe8 bc3c efb8 413d 1b15 46bd
00000160: cf5f 26bc f150 cdbb 2f34 663d 59a8 25bd
00000170: b7d1 7c3d ba27 3abc fdaf f73c 3692 823d
00000180: 311b 4a3d 6787 6fbd 0d83 c7bc 426a 543d
00000190: 5b92 7dbc dc1c 31bd 189a 38bd ae10 db3c
000001a0: 1c93 ad3c 8bf9 ad3c fb74 083d 6dc7 803d
000001b0: ccae 8539 6804 f93b 5329 3f3d 1f8c 11bd
000001c0: b612 3c3d e360 7ebd 8128 d3ba 30b0 09bd
000001d0: 81b7 1d3d 7ab9 95bd be44 f83c 737c 643c
000001e0: 23a3 11bd c35c b8bc 689a 2d3c 0890 463d
000001f0: 510d 71bd 3e8d 7b3c cbc3 073d 264f 863a
00000200: a733 2e3d c17a 9f3d e2a7 0b3c 8f40 d9bb
00000210: 3670 f4bc 2134 14bd 0c31 653c 4bcf 39bd
00000220: d952 88bd 1466 b93d f345 9cbc ca98 2cbd
00000230: 4992 abbc 2ebf 44bd 02ba 58bd 789d 503d
00000240: 86f1 dd3c 20ee 1ebd ab87 0c3d 4a5a aa3d
00000250: b297 7f3d b823 21bd b33e 773b 0e41 a13c
00000260: 3a2e 703c 1771 5b3c 24ca 2cbd 54e3 84bd
00000270: 1409 72bd a1a3 84bd 6c0e 733c 8e74 a3bc
00000280: 6460 9a3c 2783 133d bbf6 6e3d 7b87 92ba
00000290: 8878 f9bc ddfc c7bc 9048 063d 42e5 1c3c
000002a0: 1186 b6bd e277 303d b498 1c3d 9626 4bba
000002b0: e9c0 643d efcb cdbc 3cc0 133d 53ee 953b
000002c0: c668 a33c 2a05 e3bc 9281 953b dc43 773d
000002d0: 1486 56bd fec7 523d 4fdc 8c3d f64c 23bd
000002e0: 39eb cd3c 38f8 1fbd 8be0 c4bc 71df 0cbc
000002f0: 08d3 1dbd 607a 3c3d a3d9 51bd 3a11 c13c
00000300: dd49 c6bc d6b0 943d 2411 ea3b 10ff a4bd
00000310: 6d44 713d deae cb3c f223 acbb 2ea8 01bd
00000320: 002f 34bc f23a 103d f9ea 723d 09c4 83bc
00000330: 70e0 b43d 03ec 72bc 963c 0abc 63cf 0a3d
00000340: 58e5 1b3c 53b7 a73d 067b 01bd f404 2b3d
00000350: 6532 34bd e91e e13c a012 8a3c 2da6 c93c
00000360: be7c 8cbd 7866 913c 278e d7bc 9246 953c
00000370: 910f dd3c 918c 173b 80ff bbbb cc5e 12bc
00000380: c142 1abd 2900 98bc 460d 7bbd 6875 633d
00000390: a304 7cbd 314b 913d 9a3f 87bc 0927 42bd
000003a0: 9f5f b9bc 6fb5 2fbd b70f 04bd be35 023d
000003b0: 8a81 f7bc 901e 9b3c 2360 f23c 6101 863c
000003c0: f872 8bbd 5371 86bd a18f 2ebd d6d1 3d3d
000003d0: b73b 973d 6689 9abd 5dac b63c a8d9 9cbc
000003e0: 214d d2bb ab82 b9ba ec56 48bd b826 19bd
000003f0: 296a bc3c f368 e5ba 66c5 a9bc 9016 3ebd
0.046224345 -0.046119243 -0.009024605 -0.008388888 -0.026753422 0.03719812 0.071505934 0.0011475872
0.04132735 -0.04823521 0.006344698 0.033222653 0.009183305 0.004219649 0.017621355 0.038576502
-0.007992827 0.055639938 -0.020597769 -0.08033614 -0.06218801 0.05192422 -0.030547112 0.03754513
0.049745683 0.044707734 0.0049525183 0.0037563168 -0.04169334 0.056372233 0.036033913 -0.082180366
0.076894134 0.049995836 -0.012373669 -0.0650796 -0.017979503 0.01793497 0.05719774 0.05457682
0.0895804 0.003840379 -0.018863097 0.024260277 -0.098111436 0.058705144 0.05793705 0.07298023
-0.031242741 0.046491854 -0.047946014 0.008608902 0.001305802 -0.058815353 -0.033476762 0.06975631
-0.021623693 0.05726524 0.017757261 0.014378166 0.0121446485 0.036345582 -0.02606997 -0.04824765
-0.0026809175 0.023464024 0.00828141 0.029871942 0.033998013 -0.018576482 -0.036582023 0.039686803
-0.022288743 0.05473674 0.0141370855 -0.046701163 -0.009938922 0.028442496 -0.0015530541 0.017979143
0.01728332 -0.02014793 -0.037637357 0.03842078 0.076239586 0.023059962 0.047295507 -0.04835997
-0.0101546785 -0.0062657525 0.05620211 -0.040443752 0.061723437 -0.011362011 0.030235285 0.06375544
0.049342338 -0.05847874 -0.024354482 0.051859148 -0.015476788 -0.043240413 -0.04506883 0.026741352
0.021188311 0.021237155 0.033314686 0.062880374 0.0002549797 0.007599402 0.04667027 -0.03553402
0.04591628 -0.062104117 -0.0016110094 -0.03361529 0.03850508 -0.073107675 0.030306216 0.013945687
-0.03555597 -0.02250517 0.010595895 0.048477203 -0.05885059 0.015353499 0.033145707 0.0010246977
0.04252973 0.07787085 0.008523913 -0.0066300104 -0.029838663 -0.036182526 0.0139887445 -0.045363706
-0.06656427 0.09052673 -0.019076323 -0.0421379 -0.020943778 -0.048033886 -0.052911766 0.050931424
0.027092706 -0.038801312 0.03430907 0.083180025 0.062400527 -0.039340705 0.003772658 0.01968434
0.014659459 0.013393662 -0.042184964 -0.06488672 -0.05909069 -0.06476522 0.014834981 -0.019953039
0.01884479 0.03601375 0.05834077 -0.0011179292 -0.030452982 -0.024412567 0.032784045 0.009576144
-0.0891229 0.04308308 0.038231567 -0.0007749585 0.055848036 -0.025121657 0.036072 0.0045755296
0.01994742 -0.027712423 0.004562565 0.06036745 -0.05237396 0.05146026 0.06877958 -0.039868318
0.025136577 -0.03905508 -0.024032852 -0.008598194 -0.038531333 0.046015143 -0.051232945 0.023567785
-0.024205143 0.07260291 0.0071431566 -0.08056462 0.058903147 0.024863657 -0.0052533085 -0.03165453
-0.010997534 0.035212465 0.05930612 -0.016084688 0.088318706 -0.014826777 -0.008437296 0.033889186
0.009515129 0.08189263 -0.031611465 0.04175277 -0.043993372 0.02748056 0.016854584 0.024615372
-0.0685973 0.017749056 -0.0263129 0.018222127 0.026984962 0.0023124556 -0.005737245 -0.008933734
-0.037661318 -0.018554764 -0.061291955 0.05553189 -0.06152786 0.0709442 -0.01650982 -0.047400508
-0.022628604 -0.042897638 -0.03224155 0.031789534 -0.030213136 0.018935472 0.029586857 0.01635808
-0.06809038 -0.06564584 -0.042617444 0.046342693 0.073844366 -0.07545738 0.022298986 -0.019146755
-0.006417886 -0.0014153322 -0.04891102 -0.03739044 0.02299984 -0.0017502591 -0.02072401 -0.046408236

rnn.weight_ih_l1 f4 [256, 256]
00000000: b4cc 7dbd e2a7 113d 0681 73bd c0b6 833a
00000010: c013 35bd 3ef1 3fbd 94b2 8b3c 56b4 7ebd
00000020: 1674 293d 2205 263d 20b4 dbbb 704c 923c
00000030: ea1d 3f3d 709c 323d 9006 0b3d 4c68 ed3c
00000040: 7891 f33c 9679 553d 40f2 b23b d8db 5e3d
00000050: 9854 c63c 4285 5ebd 804f 3f3c 3c01 0d3d
00000060: bc98 de3c 6a9a 50bd 58f3 88bc b495 6c3d
00000070: c4a8 a83c 380b 1b3c 08d0 58bd 8821 8fbc
00000080: e0e2 723c 003d 22bc e8b6 a9bc 9c21 dd3c
00000090: 0026 f3bb 94ec 5e3d a252 0e3d 38a1 cebc
000000a0: 8292 333d fecf 2b3d 20e8 283b a4f4 60bd
000000b0: 0a1e 43bd 9c6a 39bd f097 943b 78f5 6ebc
000000c0: 2abc 473d e0dd e83b 20d4 243c 12e5 703d
000000d0: b058 f73b 00c4 0a39 0a97 5e3d 38dd eabc
000000e0: eeee 5ebd a6d4 5c3d 942c 19bd 1a4c 3dbd
000000f0: 10cd 08bc 08c9 553c 684f b6bc 8c3d 0d3d
00000100: 18f4 cfbc a89b 38bc 1069 de3b d882 f33c
00000110: 4613 063d 6c1f 6c3d 0083 b3b9 1e3f 1dbd
00000120: 90c2 edbb 009d 133a 7c05 ff3c 8082 3dbc
00000130: a426 f73c f0f9 623c 2822 15bc 00ab 723a
00000140: 9e28 733d ec8c 533d 0859 cebc 74f4 3bbd
00000150: 9ce1 24bd 34fa fabc 88e8 463c 7cab 1d3d
00000160: 4c92 efbc 288e 59bc 9e9c 44bd 6854 e5bc
00000170: 56e6 073d be56 07bd d422 063d c063 a5ba
00000180: 1006 70bd e80d 76bc c05d 88bc e88a c7bc
00000190: 86af 773d 36d6 1f3d f865 653d ca6f 36bd
000001a0: 44bc 7f3d e031 eb3b 6096 1c3c 0c73 0b3d
000001b0: f483 2fbd 1a1f 773d 9a94 3abd 400c 0d3d
000001c0: fcb8 36bd f0b1 dfbb 0048 e6ba 208f 333d
000001d0: ecd5 54bd 2488 2f3d b4a6 2ebd 4afa 1e3d
000001e0: ae87 583d 30d0 25bc 5c3a ab3c d061 14bd
000001f0: 4c29 6cbd 9c90 e73c 16bc 45bd 764a 073d
00000200: 0e98 253d 1c35 66bd 0016 9f39 9088 bf3c
00000210: eeb4 1cbd 6041 70bb dc09 1c3d 1e82 17bd
00000220: 74cc 6abd 52e3 333d ceb3 713d 8817 7c3d
00000230: 4c58 6bbd def1 413d 6004 213b ace0 403d
00000240: 64f7 cabc b2de 0abd e4c9 633d cc12 483d
00000250: 9a7f 4ebd 40d1 053b ac7e 1a3d 88f0 e83c
00000260: c0d6 553c 241f a5bc b074 233c 16b6 21bd
00000270: 1660 1cbd b440 0a3d 24e3 0c3d 88bc ec3c
00000280: 30e2 c1bc 2e63 3a3d 60cc aebc 48db 513d
00000290: f0be 4bbc 0032 9bbb 6eb7 76bd 0079 4bba
000002a0: c291 463d ba09 183d 0c6e adbc b4e2 bcbc
000002b0: f01f c73c 7282 483d 2c69 d3bc a0f9 743d
000002c0: 1858 d0bc 2892 05bd 36d4 113d 4830 4bbd
000002d0: c0ee d9bb 3eb8 253d d86e 8a3c 3056 963c
000002e0: 2867 65bc 0058 8c3c 98db 76bc 40ec 8ebb
000002f0: b4fb 3dbd 54d7 74bd eea0 773d a812 e33c
00000300: 8e54 0a3d d85f 5abc 58f8 22bd 94fd 733d
00000310: d88b 33bc 40b5 cb3c e830 68bc d046 bcbc
00000320: 58b3 1d3d 80af 2f3b 306a e4bc eea8 01bd
00000330: e648 44bd 3ea3 7b3d 24c2 8bbc 607c 313b
00000340: ac14 063d 10d8 863c b2d2 01bd 6800 bfbc
00000350: 8e5e 6fbd 40e2 c13c d232 4fbd 2066 ecbb
00000360: c862 703c 4447 4abd f03e b43b 8077 a0bc
00000370: 9aed 403d aeaa 0abd 1687 183d c29d 0d3d
00000380: 40d8 41bc c040 67bd 08f9 193d a8de 70bd
00000390: 901b aebc 40ff a13c a095 0cbc c82f a93c
000003a0: 4818 713c 10ee 493c 1cf3 463d 2cf2 a73c
000003b0: 28b3 4cbd c020 30bb d45d 3e3d f2f3 22bd
000003c0: b044 353c 78e8 573d a0e3 58bc 1a4e 33bd
000003d0: 5045 7a3c e8dd 003c ee20 29bd 405e 6d3c
000003e0: 96a1 443d 50c7 b33b 6cd0 1d3d 2cc0 783d
000003f0: 2444 5dbd d0e5 65bc 50dc 1d3c 2052 c33b
-0.0619628 0.035560496 -0.05944922 0.001004897 -0.04420829 -0.046860926 0.017052926 -0.0621837
0.041370474 0.04053224 -0.006704822 0.017858714 0.046659388 0.04360622 0.033941805 0.028980397
0.02973245 0.052117907 0.0054610074 0.054408878 0.02421026 -0.054326303 0.011676669 0.034425005
0.027172439 -0.05092851 -0.016717598 0.057759956 0.020588286 0.009463124 -0.05293277 -0.017472044
0.014824599 -0.009902239 -0.0207171 0.026993565 -0.0074203014 0.054424837 0.034746774 -0.02522336
0.043840893 0.041946404 0.0025773123 -0.054920807 -0.04763607 -0.045267686 0.004534714 -0.0145848915
0.04876343 0.0071065277 0.01006034 0.05881221 0.007548414 0.00013233721 0.05434326 -0.028669938
-0.05442708 0.053913735 -0.03739603 -0.046215154 -0.008349672 0.013048418 -0.02225466 0.034482524
-0.025384948 -0.01126758 0.006787427 0.029725477 0.032733224 0.057647154 -0.00034239143 -0.03839027
-0.0072558597 0.0005631 0.031130545 -0.011566758 0.030169792 0.013853535 -0.009102382 0.00092570484
0.059364907 0.051648065 -0.025188938 -0.045887426 -0.04025422 -0.030636884 0.012140401 0.03849362
-0.029244564 -0.013278522 -0.048000924 -0.02799435 0.03317865 -0.03304171 0.03274806 -0.0012618229
-0.05859953 -0.015017964 -0.016646266 -0.024358228 0.060470127 0.039022647 0.056005448 -0.044540204
0.062435403 0.0071775764 0.009557337 0.034045264 -0.04285045 0.060332395 -0.045551874 0.03443551
-0.04461001 -0.0068266317 -0.0017569065 0.043837667 -0.051961824 0.042854443 -0.04263945 0.038812913
0.05286377 -0.010120437 0.020901851 -0.036226094 -0.05765657 0.028267197 -0.048275076 0.033029996
0.040428214 -0.056202993 0.00030343235 0.023380548 -0.038258485 -0.003666006 0.03809534 -0.036989324
-0.057323888 0.04391796 0.059009366 0.06154588 -0.057457253 0.047349803 0.0024569258 0.047089264
-0.024776168 -0.033903785 0.05561246 0.04884605 -0.05041466 0.0020418912 0.03771846 0.028435007
0.013051689 -0.02015645 0.009976551 -0.03948029 -0.038177572 0.033753112 0.034396306 0.028898492
-0.023667425 0.04550474 -0.021337688 0.051234514 -0.01243566 -0.004736185 -0.060233526 -0.0007761866
0.04847885 0.03711865 -0.021170639 -0.02305732 0.024307221 0.048952527 -0.025806986 0.059808373
-0.025432631 -0.03261009 0.03560277 -0.04960659 -0.0066507757 0.04045891 0.016898558 0.018351644
-0.014001645 0.017131805 -0.015067004 -0.0043616593 -0.04638262 -0.059775665 0.06045621 0.027718857
0.033772044 -0.013328515 -0.03978762 0.059568003 -0.010958634 0.0248667 -0.014171816 -0.022982985
0.038501114 0.0026807487 -0.027882665 -0.031655245 -0.047921084 0.061434977 -0.017060347 0.002708219
0.032734558 0.016460449 -0.031695075 -0.023315623 -0.058439784 0.023667455 -0.050585575 -0.0072143227
0.014671989 -0.04938437 0.005500667 -0.019588232 0.047101595 -0.03385418 0.037238203 0.034574278
-0.011831343 -0.056458235 0.03759101 -0.05880609 -0.021253377 0.019775033 -0.008580595 0.020652667
0.014715262 0.012324825 0.04857169 0.020501219 -0.049975544 -0.002687499 0.0464762 -0.039783426
0.01106374 0.052711934 -0.013237864 -0.043775655 0.015275314 0.007865407 -0.04129117 0.014487803
0.048005663 0.0054864064 0.038528845 0.060730144 -0.054020062 -0.014031842 0.009635046 0.005960718

rnn.weight_hh_l1 f4 [256, 256]
00000000: b82a 15bd e0f9 50bd 0017 c2b9 bc12 31bd
00000010: bcbf 36bd f08d dcbb f44b c7bc 74e1 df3c
00000020: 6a1c 5abd 0865 483d 00fd fbbc 140f 65bd
00000030: a8f5 0e3d 802f c13a e4d4 e13c 3ce4 a73c
00000040: c87f 4ebd 801d bd3c d8f8 98bc 844e 36bd
00000050: ac5e bfbc e4b3 cfbc 30d0 00bd 4c80 10bd
00000060: 7205 51bd 72fa 3abd 86e2 593d 9012 82bc
00000070: 08bd 5bbd 0036 263b ac7b 59bd a455 b33c
00000080: 8083 85ba f478 e33c 80e7 113b ae8f 2bbd
00000090: ccd2 05bd dc57 463d 3ccf 013d c0d0 ccbb
000000a0: 40cf c5ba 9abf 5b3d 8081 c8bb e0e1 bbbb
000000b0: d0dd 473c f89f fc3c a8eb 0dbc bcd5 42bd
000000c0: 5e0b 1cbd 8404 813c 5e49 633d 208f 1e3b
000000d0: c83c 003c c005 123b 7881 fe3c 5cc5 033d
000000e0: 52ab 5fbd 50ae e8bb 5ed2 0b3d 4e7e 3a3d
000000f0: 8a65 68bd fc2c 31bd c0c5 743d 208a cabb
00000100: 2087 cb3b aa16 3c3d f0be 643d 5af5 50bd
00000110: 3433 9fbc 262d 0f3d 3839 4e3d c076 a6bb
00000120: 0064 f13b 4039 043d 5871 47bc 4441 933c
00000130: e89c 553c 0a2a 133d 7432 30bd 1211 23bd
00000140: 6432 d93c 6854 563c 8c80 8fbc 8031 10bd
00000150: 4a98 573d 4083 5b3c 8064 6e3d 5cd0 9a3c
00000160: 34cc 62bd 3ca2 dcbc 4064 6bbc 4860 473d
00000170: 487b 43bd 5815 5abd 00a6 acb9 581b 123d
00000180: 9c39 a33c b679 34bd 0040 45bc 88ca 17bd
00000190: 00ec b6b8 9800 75bd 4654 4f3d d087 8f3b
000001a0: a0ec 3a3b 36c3 613d 9843 ed3c d645 6cbd
000001b0: e646 3e3d 00d0 8d3a 00c5 f03b 20dd 48bb
000001c0: 5c72 06bd 8ef6 7fbd 46c4 36bd a822 64bc
000001d0: 3ab9 413d f450 793d 0237 013d acaf 763d
000001e0: dca0 173d 683a f43c c80d 3bbd b8d1 3cbd
000001f0: cc30 0f3d da69 643d 00a2 20ba 201e 0d3c
00000200: a8bb 0c3d 9800 723d 8486 66bd 8020 78bb
00000210: 069a 78bd 48b5 1b3c 8468 973c 30c9 e0bb
00000220: d43f 2abd 22ab 213d bc54 1c3d 5870 7abc
00000230: cec8 0abd 5875 ccbc f293 49bd 56fc 343d
00000240: 44fc c43c 4066 093d 201d a5bc ca4d 5ebd
00000250: f0e1 4fbc 80eb 29bd cec1 2ebd dae2 7a3d
00000260: b26d 163d 105f f63b 40a1 cd3c 6e43 4b3d
00000270: a093 f9bc 5a53 12bd e2b0 3dbd 0c44 733d
00000280: f076 613c d42a 623d b2d6 5bbd f405 16bd
00000290: a047 213d b6b5 1abd 18e4 af3c 18fa 27bd
000002a0: f043 e23c 800b 49ba ecef f63c f85f bfbc
000002b0: f8f8 3a3c 6ceb 5ebd 5262 633d 40d2 57bb
000002c0: 3cc1 44bd c0c7 a0ba 2076 e33c 4a29 7dbd
000002d0: 94f3 afbc 8c0b edbc ae2c 723d 0c4a 9fbc
000002e0: ca0a 083d dc5a 75bd d6ea 35bd f891 a2bc
000002f0: 003e 8a3c 38f4 bb3c 7663 693d 9c7e 40bd
00000300: 9087 e3bc c209 613d d0e0 d23c deba 47bd
00000310: 3c48 4cbd bcff ea3c b413 7fbd 58df 46bc
00000320: fc3e 153d d0ac a4bc 38d4 39bd d094 07bd
00000330: 58e4 073d d851 333c 5026 b23c dc16 5c3d
00000340: faa7 0abd 9008 6c3c 1842 64bc 249b 94bc
00000350: f494 123d f606 403d 5e84 7cbd 8c16 d7bc
00000360: 78f9 7ebc 9844 d2bc bcce 10bd 3001 903b
00000370: d833 223c 808a 123a 3c10 313d bc10 dc3c
00000380: 2096 d53b 1c9d 4f3d b48b 19bd e065 d63c
00000390: 10e6 bfbb 5002 583c dce1 363d 8c35 1bbd
000003a0: decb 683d 9898 0cbc 340b d03c 00e0 3abd
000003b0: 547f 67bd ac24 f43c a0ed 603c 1a3a 3ebd
000003c0: 5441 fbbc 8095 ebbc f4c1 923c 9aac 773d
000003d0: d0d9 153d b0ff bfbc 4204 763d 1ef9 37bd
000003e0: 4cc8 0d3d 58b8 11bd aec7 19bd a0eb 7fbb
000003f0: e87c 3ebc e877 b93c 2056 033d 9ab8 573d
-0.036417693 -0.05101955 -0.000370197 -0.043230757 -0.044616446 -0.0067307875 -0.02432821 0.027329184
-0.053249754 0.048924476 -0.030760288 -0.055922583 0.034902245 0.0014738888 0.027567334 0.020494573
-0.05041483 0.023085356 -0.018673345 -0.044508472 -0.023360573 -0.025354333 -0.031448543 -0.035278603
-0.051030584 -0.045649 0.053194545 -0.015877992 -0.05364707 0.0025361776 -0.05309646 0.021891423
-0.0010186285 0.027767636 0.002226323 -0.04188507 -0.032671735 0.048423633 0.031691775 -0.006250471
-0.0015091673 0.053649522 -0.006118953 -0.0057337135 0.01219888 0.030837998 -0.008662142 -0.047567114
-0.038096778 0.015749224 0.05548989 0.0024194196 0.007826991 0.002228126 0.031067595 0.03217064
-0.054606743 -0.007100858 0.03413617 0.04553061 -0.05673746 -0.04325579 0.0597589 -0.0061810166
0.0062111765 0.04592005 0.055846155 -0.051015235 -0.019433595 0.034955166 0.050347537 -0.005080074
0.0073666573 0.03228116 -0.012173019 0.017975457 0.013037898 0.035928763 -0.043016866 -0.0398112
0.026513286 0.013081647 -0.01751735 -0.035203457 0.05263547 0.013397992 0.058201313 0.018898182
-0.055370525 -0.026932828 -0.014367163 0.048675805 -0.047724992 -0.05324301 -0.00032930076 0.03567061
0.019924931 -0.044061385 -0.012039185 -0.037058383 -8.722395e-05 -0.05981502 0.05061748 0.004380204
0.0028522387 0.05511781 0.028962895 -0.05768379 0.046454333 0.0010819435 0.007347703 -0.003064938
-0.032823905 -0.062490992 -0.044620775 -0.013924278 0.047295786 0.06086822 0.0315466 0.060226128
0.03701864 0.029813007 -0.04566744 -0.04609844 0.034958646 0.05576501 -0.00061276555 0.008613139
0.03435865 0.059082597 -0.056280628 -0.0037861168 -0.060693763 0.00950367 0.018482454 -0.006859921
-0.041564777 0.039469846 0.038166746 -0.015285574 -0.03388291 -0.024958298 -0.049213357 0.04418596
0.02404607 0.03354478 -0.02015549 -0.054273404 -0.012688145 -0.041484356 -0.042665295 0.0612515
0.036725707 0.0075186566 0.025101304 0.049624853 -0.0304659 -0.03572402 -0.046311267 0.059391066
0.013761267 0.055216625 -0.053671546 -0.03662677 0.039374948 -0.03777095 0.021471068 -0.041009992
0.027620286 -0.0007669255 0.0301437 -0.023361191 0.011411898 -0.054423735 0.055513687 -0.0032931715
-0.048035845 -0.0012266561 0.027766287 -0.061806954 -0.021478452 -0.02893617 0.05912464 -0.019444488
0.033213414 -0.059901103 -0.04441341 -0.019844994 0.016875267 0.022943601 0.05697962 -0.046995744
-0.027774602 0.054940946 0.025741965 -0.048762195 -0.049873576 0.028686397 -0.06227465 -0.01213821
0.03643702 -0.020101935 -0.045368403 -0.033100903 0.03317675 0.010944806 0.021746784 0.053732738
-0.0338516 0.014406338 -0.013931774 -0.018140383 0.035786584 0.04688164 -0.061649673 -0.026255868
-0.015562408 -0.025667474 -0.035353407 0.004394673 0.009900056 0.0005590096 0.043228373 0.026863448
0.0065181404 0.05068694 -0.037486747 0.026171625 -0.005856283 0.013184145 0.04464899 -0.037892863
0.056835048 -0.008581303 0.025395967 -0.04562378 -0.056517914 0.029802643 0.013728529 -0.04644213
-0.0306708 -0.02875781 0.01791475 0.06046734 0.036584675 -0.023437351 0.060062654 -0.04491531
0.034614846 -0.035576195 -0.037543945 -0.0039050356 -0.01162646 0.022640184 0.032064557 0.052666284

rnn.bias_ih_l1 f4 [256]
00000000: e020 d9bb b097 19bd 504b ffbb d823 43bd
00000010: 5475 263d f46c 7b3d c05d 74bb d4e1 96bc
00000020: a8da 42bc f406 b53c 0c17 163d 003e 953b
00000030: d884 b7bc 3c59 993c 2cb8 5d3d 9023 383d
00000040: d691 65bd 0012 1eba 004b f8bb 80fd 643b
00000050: fe06 4dbd aad5 7e3d 781c 153d d035 563d
00000060: b01b 66bc 4c31 813c 80c4 543b a440 6f3d
00000070: 1405 de3c c0a6 07bd c0ad b9bb ec80 f0bc
00000080: 9428 5abd d69a 40bd a456 7bbd c886 12bd
00000090: 60f9 bf3b 00d9 253a 4202 5abd 58cf 40bc
000000a0: 78e4 e73c 0c77 f3bc 7400 92bc 809d 073d
000000b0: d04d 0d3d f093 573c 9010 1f3c 62ec 2abd
000000c0: fc04 1e3d b078 3dbd 00f7 ef39 ca72 363d
000000d0: 08b4 febc c225 103d 38f9 b4bc d245 5a3d
000000e0: 3016 743d 10b1 3d3d 88c4 a0bc 5cd9 9d3c
000000f0: 90c1 3abd 40ca 91bb 9073 70bd 8ebb 1b3d
00000100: 181e 733d 2c7c c93c 60b9 e53c 90a7 8a3c
00000110: 300e 85bb 4006 733c 809a 9fbb 6c2a b0bc
00000120: 68e0 4dbc a610 0abd 081d 41bd a442 bfbc
00000130: 80f0 fc3c 405a 573d 305a 9abc c8d9 a13c
00000140: 70e6 0ebc 8e39 3bbd b0e7 76bd 644e f33c
00000150: 620f 68bd 14a0 cb3c 5c83 afbc d4a3 7d3d
00000160: 363c 3dbd 80fb 933b 28e0 f8bc ce08 0abd
00000170: c0a9 3b3b a88f 43bc 8e86 023d b87f 72bd
00000180: 4431 59bd 7042 d6bb 5022 83bc 6845 4c3d
00000190: ac3a 34bd c8e9 8abc f095 f23b d20a 79bd
000001a0: 2cfb 153d 080d b43c 06d8 743d 302b 983c
000001b0: 9ca7 073d eec2 503d 347a d6bc 3814 143c
000001c0: f489 383d c065 ec3b f0b2 fcbb 0013 1b3c
000001d0: a641 3cbd e0b4 6ebb 4077 59bb 189a 6abd
000001e0: ea11 333d 8ea0 2ebd 0881 883c 5438 623d
000001f0: aabd 053d a016 063c 007c e4ba c041 c2bc
00000200: 3028 7bbc 7091 db3b c29e 10bd 00d3 3cbc
00000210: 004d e4b9 28a9 f5bc bc88 5a3d 2055 553c
00000220: 9075 6c3d 2613 483d 2872 79bc 6e8c 21bd
00000230: f0b4 6a3d 50f3 e63b 908f 7e3d 4428 de3c
00000240: 6403 3ebd 108b 7d3d 124a 023d 5ec5 1c3d
00000250: 009e aebb 909b e0bb 80b7 16bb a85d 79bd
00000260: 6085 50bb 6a34 62bd 1673 173d 8e2c 4ebd
00000270: 3af5 59bd 18a8 1b3d bcac 453d 189d 72bc
00000280: b028 e5bc 6809 cf3c 9830 383d f448 bdbc
00000290: 002f bdbb a0ce ce3b 5c92 b93c dc9f fd3c
000002a0: 4c42 a6bc ae31 4ebd 9ed9 1e3d b408 683d
000002b0: 8aa0 143d 42a2 5e3d e064 053b 606a a63c
000002c0: 541f f73c 1ceb 683d 7cd6 f13c e030 3ebd
000002d0: 106d 56bd be41 06bd 484b 70bc b8fa 16bd
000002e0: b826 793c 5aba 633d 54da ef3c 1452 d3bc
000002f0: b40c 4bbd e8b5 483c ea82 70bd 34c2 d4bc
00000300: c857 62bd 8e83 7fbd be8a 403d c02f fabb
00000310: 3abe 2fbd 14ce 693d 4020 043d c8fa d2bc
00000320: a8d9 593d d43d 39bd 0e01 533d a815 2c3c
00000330: 18cf f13c 70ed e53b 2a3c 0cbd 066c 6cbd
00000340: 0c65 ebbc 3071 bdbb 38c0 4cbd 5464 173d
00000350: e0a0 84bc 24d1 c13c 049d c93c 9064 bc3b
00000360: b0dc 6f3d c810 643d baef 5f3d 0488 af3c
00000370: 78c1 b43c c8be f2bc 5e51 783d 804a bc3b
00000380: 00b3 5fbb 6007 193d 503d f73b 1879 b73c
00000390: 1c35 febc c4fa 78bd 4a6a 2c3d b4a4 0c3d
000003a0: 9aec 58bd 980a 1ebc e0ed a7bb 6480 cc3c
000003b0: 9a33 2c3d 84d0 1c3d c88d 5bbd e88b 30bd
000003c0: d8f0 0cbd 2823 c73c 9ca6 3b3d fc9b b0bc
000003d0: d097 a1bb 30a1 8c3c 028d 32bd e8a2 29bc
000003e0: 4085 e9ba f8ea a13c dc46 01bd 7485 793d
000003f0: 8e25 643d ac24 adbc 48dd 51bd 54cc 493d
-0.0066262335 -0.037498176 -0.0077909604 -0.047641605 0.040639237 0.061383203 -0.0037287325 -0.01841823
-0.011892952 0.022098042 0.036643073 0.00455451 -0.022402212 0.018719308 0.054130718 0.04495579
-0.056047283 -0.0006029904 -0.0075773 0.0034941137 -0.050055496 0.062215485 0.036404103 0.052297413
-0.014044687 0.015770577 0.0032465756 0.058411255 0.02710203 -0.03311801 -0.0056664646 -0.02935835
-0.053261355 -0.047022663 -0.061361924 -0.03577307 0.0058585852 0.0006326586 -0.05322481 -0.011768185
0.028307185 -0.029719852 -0.017822482 0.033109188 0.034498036 0.01315783 0.009708539 -0.04172934
0.038578972 -0.046257675 0.00045769662 0.044543065 -0.031091705 0.03519226 -0.022091493 0.053289242
0.059591472 0.046311438 -0.019624963 0.019268684 -0.04559475 -0.004449159 -0.05870396 0.038020663
0.05935487 0.024595343 0.028042495 0.016925603 -0.004060529 0.014833033 -0.0048707128 -0.021504603
-0.01256571 -0.033707283 -0.047146827 -0.023347206 0.030876398 0.052576303 -0.018841833 0.019757167
-0.008721933 -0.045709185 -0.06027955 0.029700466 -0.056655295 0.024856605 -0.021424942 0.061923817
-0.0462 0.004516065 -0.030380324 -0.033699803 0.0028635114 -0.011936106 0.031866603 -0.059203833
-0.0530255 -0.0065386817 -0.016007572 0.04987088 -0.044001266 -0.016957179 0.007403128 -0.060801335
0.03661649 0.02197887 0.05977633 0.01857528 0.03311883 0.05096715 -0.026181318 0.009038024
0.045053437 0.007214278 -0.0077117607 0.009464979 -0.045961045 -0.0036423728 -0.003318265 -0.05727586
0.043718256 -0.042633586 0.01666309 0.0552295 0.03265158 0.008184105 -0.0017431974 -0.023712993
-0.015329406 0.006700687 -0.035307653 -0.011524916 -0.00043544918 -0.029987887 0.053353056 0.013020784
0.057729304 0.048846386 -0.015224971 -0.039440565 0.05730146 0.007048048 0.06214863 0.02711881
-0.046389952 0.0619002 0.03180892 0.03827416 -0.0053288937 -0.006854482 -0.0022997558 -0.060880333
-0.003181778 -0.055225767 0.03697499 -0.05033546 -0.053212382 0.038002104 0.048260435 -0.014807962
-0.027973503 0.02527304 0.044968218 -0.023106076 -0.005773425 0.0063112527 0.022652797 0.030960016
-0.020295285 -0.050340347 0.038781755 0.056648925 0.036285914 0.05435396 0.0020354316 0.020314395
0.030166306 0.056864843 0.02952122 -0.04643333 -0.052350104 -0.03277754 -0.014666386 -0.036860198
0.015206985 0.05559764 0.029278912 -0.025795974 -0.04957266 0.012250401 -0.0587186 -0.02597151
-0.055259496 -0.06238132 0.047007315 -0.007635087 -0.042906024 0.057081297 0.03225732 -0.025754347
0.05318609 -0.04522498 0.051514678 0.01050321 0.029517695 0.00701683 -0.034237064 -0.057720207
-0.028734706 -0.0057813153 -0.049988 0.036960915 -0.016189992 0.023659296 0.024611004 0.0057492927
0.058560073 0.055680066 0.05467198 0.021427162 0.02206491 -0.029631987 0.060624473 0.005746186
-0.0034133792 0.03736055 0.007545151 0.02239661 -0.031031184 -0.060786024 0.042093553 0.03433676
-0.052960016 -0.00964608 -0.0051247925 0.024963565 0.0420414 0.038284793 -0.05360201 -0.043102175
-0.034409374 0.024308756 0.045813188 -0.021558754 -0.0049314275 0.017166704 -0.043591507 -0.010353781
-0.0017816201 0.019765362 -0.031561717 0.060918286 0.055699877 -0.02113565 -0.05123642 0.049267128
